Model: "functional_3"
+--------------------------------------------------------------------------+
| Layer (type)                    | Output Shape           |       Param # |
|---------------------------------+------------------------+---------------|
| input_layer (InputLayer)        | (None, 360, 1)         |             0 |
|---------------------------------+------------------------+---------------|
| sequential (Sequential)         | (None, 180, 32)        |           352 |
|---------------------------------+------------------------+---------------|
| sequential_1 (Sequential)       | (None, 90, 64)         |        10,496 |
|---------------------------------+------------------------+---------------|
| sequential_2 (Sequential)       | (None, 45, 128)        |        25,088 |
|---------------------------------+------------------------+---------------|
| global_average_pooling1d        | (None, 128)            |             0 |
| (GlobalAveragePooling1D)        |                        |               |
|---------------------------------+------------------------+---------------|
| dropout (Dropout)               | (None, 128)            |             0 |
|---------------------------------+------------------------+---------------|
| dense (Dense)                   | (None, 64)             |         8,256 |
|---------------------------------+------------------------+---------------|
| dropout_1 (Dropout)             | (None, 64)             |             0 |
|---------------------------------+------------------------+---------------|
| dense_1 (Dense)                 | (None, 1)              |            65 |
+--------------------------------------------------------------------------+
 Total params: 44,257 (172.88 KB)
 Trainable params: 43,809 (171.13 KB)
 Non-trainable params: 448 (1.75 KB)
Epoch 1/6

[1m  1/557[0m [37m====================[0m [1m45:38[0m 5s/step - accuracy: 0.2891 - auc: 0.5690 - loss: 0.7266 - precision: 0.2414 - recall: 0.9032
[1m  2/557[0m [37m====================[0m [1m1:53[0m 204ms/step - accuracy: 0.3379 - auc: 0.5969 - loss: 0.7105 - precision: 0.2690 - recall: 0.8822
…
